app/src/main/assets/modelo_convertido.tflite (tflite, 14872 bytes, 8 tensors)

sequential_1/conv1d_1/Squeeze f4 [16]
0	0x3e20d262	0.15705255
1	0xbe39044a	-0.18068042
2	0x3d4d2223	0.050081383
3	0x3e12c2a7	0.14332066
4	0x3dadd294	0.0848743
5	0x3ecfe567	0.40604708
6	0xbdcda09e	-0.10040401
7	0x3d61a575	0.055089433
8	0x3e8da2ce	0.27663273
9	0x3dbd0150	0.09228766
10	0xbe90b0f4	-0.28260005
11	0xbe4ae634	-0.19814378
12	0x3cf58141	0.02996886
13	0xbdfbd424	-0.12296322
14	0xbd680042	-0.05664087
15	0xbd6a560c	-0.057210967

sequential_1/conv1d_1_2/Squeeze f4 [32]
0	0x3be7d89d	0.007075383
1	0xbb47c3fe	-0.003048181
2	0x3e003881	0.12521555
3	0x3d5ceb53	0.05393536
4	0x3d44c04d	0.048034955
5	0xbe3bbc6d	-0.18333597
6	0x3bcb84e9	0.0062109125
7	0xbdfeba5f	-0.12437891
8	0x3d48233c	0.048861727
9	0x3e5e454c	0.21706122
10	0x3d48f7bf	0.049064394
11	0xbc1fbd08	-0.009749658
12	0xbc79eb02	-0.015253784
13	0xbc924744	-0.017856248
14	0x3c4fd693	0.012685436
15	0xbd6b9200	-0.057512283
16	0x3df47717	0.11936777
17	0x3cbfa40a	0.02339365
18	0xbc20458b	-0.009782205
19	0x3c130b9b	0.008974935
20	0x3cc490ab	0.023994764
21	0x3dad9476	0.08475582
22	0x3dc7d79c	0.09757921
23	0x3dab8dfb	0.0837669
24	0xbdda9d39	-0.10674519
25	0x3c934c84	0.017980821
26	0x3bfefc21	0.007781521
27	0xb91ea398	-0.00015128998
28	0x3d39eba0	0.045390725
29	0x3d7c242d	0.061557937
30	0x3d99141d	0.074745394
31	0x3d569401	0.05238724

sequential_1/conv1d_1/convolution f4 [16, 1, 3, 3]
0	0x3e38b8cc	0.18039244
1	0x3c75b915	0.01499774
2	0xbe74498a	-0.23856178
3	0xbeb15d35	-0.34641424
4	0xbe3ba2ce	-0.18323824
5	0x3e97aab9	0.2962244
6	0xbeeac6c4	-0.4585477
7	0x3e8c4980	0.27399826
8	0x3ea9cc55	0.33163705
9	0x3dec7a77	0.11546796
10	0xbdb8d0e1	-0.090242155
11	0xbe8508a9	-0.2598317
12	0xbd956a5b	-0.07295676
13	0x3ece1621	0.40251258
14	0xbd57264a	-0.05252675
15	0x3e69881a	0.22805825
16	0x3e536a85	0.20646103
17	0x3e9ff066	0.31238097
18	0xbe60f9be	-0.21970269
19	0xbe9280dc	-0.28613937
20	0xbdb00ef3	-0.08596601
21	0x3e1f5984	0.15561491
22	0x3d73278e	0.059363894
23	0xbda381c7	-0.079837374
24	0x3e8f8708	0.28032708
25	0xbe48cce4	-0.1960941
26	0x3dbbe7be	0.09175061
27	0xbea10aaf	-0.31453463
28	0x3e7ade0d	0.24498768
29	0x3eb4459f	0.35209367
30	0xbe764991	-0.24051501
31	0xbdce1615	-0.100628056
32	0x3e9befc3	0.3045636
33	0x3db7f92d	0.089830734
34	0x3e0909fd	0.13382716
35	0x3d520391	0.051272932
36	0xbeb4b746	-0.35296077
37	0xbe1957d2	-0.14974907
38	0xbe98432d	-0.2973875
39	0xbedcd158	-0.43128467
40	0xbe0c4107	-0.13696681
41	0x3e1dd937	0.15414892
42	0xbdd9f63f	-0.10642671
43	0x3d9b5af8	0.0758571
44	0x3d0a315a	0.03373847
45	0xbe9b2121	-0.30298713
46	0x3d904eb5	0.07046262
47	0x3d80d94e	0.062914476
48	0x3e229276	0.15876183
49	0xbc5e0b77	-0.013552538
50	0xbde085de	-0.10963033
51	0xbf2dff73	-0.6796791
52	0xbb35f415	-0.0027763892
53	0xbcafcf30	-0.0214611
54	0x3e0b54f9	0.13606633
55	0x3e41f202	0.18939975
56	0xbdce0831	-0.10060156
57	0x3e8b9642	0.27263075
58	0x3e129284	0.14313704
59	0x3e5efb9d	0.2177567
60	0x3ec2c7df	0.38043115
61	0x3e1e814f	0.15479015
62	0x3e68749a	0.2270073
63	0x3e7695a5	0.24080522
64	0xbd4987ce	-0.04920178
65	0x3ec39110	0.3819661
66	0xbe44cc5b	-0.1921858
67	0x3e5c8a2e	0.21537086
68	0xbe8f2d01	-0.27964023
69	0x3e06815a	0.13135281
70	0x3d6df0ca	0.058090962
71	0x3e051f47	0.13000213
72	0xbeaa802c	-0.33300912
73	0x3d9f0c08	0.07765967
74	0x3e64cdbd	0.22344108
75	0xbdf4d88c	-0.119553655
76	0xbec45c34	-0.38351595
77	0xbe83411b	-0.2563561
78	0xbee02760	-0.4378004
79	0xbeeffb61	-0.46871474
80	0xbe9371c1	-0.28797725
81	0x3e1f43c0	0.15553188
82	0xbc3ec4f4	-0.011643637
83	0x3dd2ced4	0.102933556
84	0x3e51d4a5	0.20491274
85	0x3e9471ac	0.28992975
86	0x3e0833c4	0.13300997
87	0x3e8ae372	0.27126652
88	0x3e6c283f	0.23062228
89	0xbe4a49fe	-0.19754788
90	0x3f0b275f	0.5435695
91	0xbe4ba016	-0.19885287
92	0xbd81468b	-0.06312283
93	0x3e05e2da	0.13074818
94	0xbe303c59	-0.17210521
95	0x3db7bcc4	0.08971551
96	0xbe5cc818	-0.21560705
97	0x3e1f96f4	0.15584928
98	0x3eaa0176	0.3320424
99	0xbe97ca8f	-0.29646727
100	0xbe90d7e5	-0.28289714
101	0xbe19b7f5	-0.1501158
102	0x3bd8f459	0.0066209254
103	0x3e2b4096	0.16723856
104	0xbe8a47d5	-0.27007928
105	0xbdab7dc4	-0.08373597
106	0xbed44baa	-0.41463977
107	0xbed2f319	-0.41201094
108	0x3e2e96f8	0.17049778
109	0xbeb217a0	-0.3478365
110	0x3e467cb1	0.19383503
111	0xbe25e8f6	-0.16202149
112	0x3e7a244a	0.24427906
113	0x3e8cdd0b	0.27512392
114	0x3e921b96	0.2853667
115	0xbe36961e	-0.17830703
116	0xbe185bd7	-0.14878784
117	0xbed3d811	-0.41375783
118	0xbea78811	-0.32720998
119	0x3f08cddd	0.5343912
120	0x3e9249d9	0.28571966
121	0x3d8aa42b	0.06769594
122	0xbea0cb39	-0.31405047
123	0x3e2a9a36	0.1666039
124	0xbe830984	-0.25593197
125	0x3c7f789a	0.0155927185
126	0x3dd1c6ac	0.10242972
127	0x3e821556	0.25406903
128	0xbe8aafd5	-0.27087274
129	0x3e0a04f8	0.13478458
130	0x3e264813	0.16238432
131	0xbe6aa788	-0.2291547
132	0x3e6e071c	0.232449
133	0xbe71b732	-0.2360504
134	0x3d850972	0.06495942
135	0xbe8be4dc	-0.27323043
136	0x3eaf4447	0.3423178
137	0xbe496b4b	-0.19669835
138	0xba85e12a	-0.0010214199
139	0x3e4c604e	0.19958612
140	0x3ca9b6a0	0.020716965
141	0xbe244c6e	-0.1604478
142	0x3e443dd0	0.19164205
143	0xbe0763bb	-0.13221638

sequential_1/conv1d_1_2/convolution f4 [32, 1, 3, 16]
0	0xbc3ded13	-0.011592167
1	0xbdab52d3	-0.08365407
2	0x3deaf5fe	0.114727005
3	0x3ea88011	0.32910207
4	0xbdb25c39	-0.08708996
5	0x3e92587f	0.28583142
6	0x3d4416ed	0.047873426
7	0x3e6f4556	0.23366293
8	0x3d947146	0.07248168
9	0xbd61c962	-0.055123694
10	0xbc1846b3	-0.0092942
11	0x3e079cf3	0.13243465
12	0x3e2721a6	0.1632143
13	0xbaaa4907	-0.0012991735
14	0x3e2668d0	0.1625092
15	0xbcaaf6ab	-0.020869574
16	0x3c686593	0.014184373
17	0x3da7043f	0.08155107
18	0x3e0bb400	0.13642883
19	0xbd887369	-0.06662638
20	0xbe5b4d25	-0.21416147
21	0x3e2335bf	0.15938471
22	0xbdb573d4	-0.08859983
23	0x3de609a6	0.11232309
24	0xbd2b68ae	-0.041847877
25	0xbdadfc7d	-0.08495424
26	0xbdaeecef	-0.08541285
27	0x3d71066b	0.05884401
28	0xbd2ee680	-0.04270029
29	0x3e19061b	0.14943735
30	0x3d8bd0f6	0.068269655
31	0x3ddbbb6a	0.10729106
32	0xbe1dd9c4	-0.15415102
33	0xbe860368	-0.26174474
34	0x3dd22867	0.102616124
35	0x3ddf4e10	0.10903561
36	0xbe50d88d	-0.20395108
37	0xbe26b202	-0.16278842
38	0xbcf9a33c	-0.030473344
39	0x3ce7067c	0.028201334
40	0xbdb3da85	-0.08781914
41	0x3d092464	0.03348197
42	0xbe52c716	-0.20583758
43	0xbdc3e752	-0.09565605
44	0xbc949ad0	-0.018140227
45	0xbdf2bbbe	-0.11852215
46	0xbd0e9f9d	-0.034820188
47	0xbdc7ef54	-0.09762445
48	0xbe186dc8	-0.14885628
49	0xbbc3d2d9	-0.0059760627
50	0xbdb239f7	-0.08702462
51	0xbe835bec	-0.25656068
52	0xbbf27caf	-0.0074001173
53	0x3dc305fe	0.09522627
54	0x3ddee366	0.108832166
55	0xbe4ad79e	-0.19808814
56	0xbe3490a9	-0.17633308
57	0xbe53ca59	-0.20682658
58	0xbe80f5fe	-0.25187677
59	0xbe60dd89	-0.21959509
60	0xbe714637	-0.23561941
61	0xbea88a20	-0.3291788
62	0xbeaf4353	-0.34231052
63	0x399d5883	0.0003001132
64	0x3da58aaf	0.080830924
65	0xbd3fff6d	-0.046874452
66	0xbdfbeec0	-0.12301397
67	0xbb8fca45	-0.004388126
68	0xbe5edc02	-0.21763614
69	0xbdb8d13d	-0.09024284
70	0x3dad6082	0.08465673
71	0xbddf5a5e	-0.10905908
72	0x3c128b95	0.008944412
73	0xbd44ee6a	-0.048078932
74	0xbd5a8e9f	-0.05335867
75	0x3daabd59	0.083368964
76	0xbda05387	-0.078284316
77	0x3ce1c925	0.027561733
78	0x3dd0558b	0.10172566
79	0xbc624533	-0.013810444
80	0x3ea60d31	0.3243194
81	0xbc473f50	-0.012161091
82	0x3e367c60	0.17820883
83	0x3de14dde	0.1100118
84	0xbd2034d6	-0.03911289
85	0x3e36502e	0.17804024
86	0xbccd9b31	-0.025098415
87	0x3e49d98c	0.19711894
88	0x3e619b65	0.22031935
89	0x3dd38655	0.10328356
90	0xba70ce48	-0.0009186012
91	0x3e3ce13a	0.18445292
92	0x3e62c3d7	0.2214502
93	0x3d3ef0b5	0.046616275
94	0xbc1368d1	-0.008997158
95	0xbe27b79c	-0.16378635
96	0xbd0a2665	-0.033728022
97	0xbcbbed9d	-0.022940451
98	0x3e21bb42	0.1579409
99	0xbe092ef3	-0.13396816
100	0xbd8caaf7	-0.068685465
101	0x3da6ce9b	0.081448756
102	0xbe64b2e7	-0.22333871
103	0xbe3a2cd6	-0.18181166
104	0xbe71583c	-0.23568815
105	0x3cb06528	0.02153261
106	0xbef504b2	-0.47855145
107	0xbe50aa86	-0.2037755
108	0xbe3a372b	-0.18185107
109	0xbd8acedd	-0.06777737
110	0x3ddc01aa	0.10742505
111	0xbe39bb19	-0.18137778
112	0x3d8d53a7	0.06900721
113	0x3d0914dc	0.03346716
114	0x3dd4416d	0.103640415
115	0xbdb9a837	-0.090652876
116	0xbe777a6d	-0.24167795
117	0x3dce7cda	0.10082407
118	0x3e4e910c	0.20172518
119	0x3de5aabe	0.11214207
120	0x3e0e7ba5	0.13914354
121	0xbe0f6185	-0.14002044
122	0xbb713155	-0.0036803086
123	0x3cabef54	0.020988144
124	0xbd5612de	-0.052264087
125	0xbd6dc13f	-0.058045622
126	0xbdbeb67e	-0.09312151
127	0x3d858631	0.065197356
128	0xbd8a6a05	-0.06758503
129	0xbd1b0698	-0.037848085
130	0xbe82ad5a	-0.25522882
131	0x3dee1826	0.116257
132	0xbd59baa4	-0.05315651
133	0x3e236504	0.15956503
134	0x3c424cb4	0.011859108
135	0xbd4ee9e8	-0.05051604
136	0x3e65089c	0.22366565
137	0xbdc20b45	-0.09474806
138	0x3e50fdd4	0.20409328
139	0xbcbacc04	-0.02280236
140	0x3cfb4174	0.030670859
141	0x3ca823bd	0.020524854
142	0xbe41504b	-0.18878286
143	0xbdb65082	-0.089020744
144	0x3df41f1f	0.119199984
145	0x3e147259	0.14496745
146	0xbe62839b	-0.22120516
147	0x3e8dce1f	0.2769632
148	0x3e57d1cf	0.2107613
149	0xbd0d19ce	-0.034448437
150	0x3e39fefe	0.18163678
151	0x3dc2f916	0.095201656
152	0x3d56613a	0.052338816
153	0x3e27132f	0.16315912
154	0xbc2c7651	-0.010526256
155	0xbe41d3b7	-0.18928419
156	0x3e5a464b	0.21315877
157	0x3d2a8df1	0.041639272
158	0x3bbcc735	0.005761052
159	0x3e3885d1	0.18019797
160	0xbc79bf5d	-0.0152433785
161	0xbe913c9e	-0.2836656
162	0x3e15e374	0.14637548
163	0x3e0aabef	0.1354215
164	0x3d3fedf7	0.0468578
165	0x3db4f7b1	0.08836306
166	0x3d19649c	0.037449464
167	0xbd8e8336	-0.0695862
168	0x3d130b42	0.03589941
169	0xbd2fb702	-0.04289914
170	0xbdeafd81	-0.11474133
171	0xbe61a73c	-0.22036451
172	0xbdf23e9b	-0.11828347
173	0xbdbbd111	-0.091707356
174	0xbc17e02d	-0.009269756
175	0x3e0ad39a	0.13557282
176	0xbdfe5ce5	-0.12420062
177	0xbdef5922	-0.116869226
178	0xbc2fb0fd	-0.01072335
179	0xbe833c68	-0.25632024
180	0xbe2dabab	-0.16960017
181	0xbd57d151	-0.052689854
182	0xbd1b8588	-0.037969142
183	0x3da6820b	0.081302725
184	0xbe7aba1d	-0.24485059
185	0x3e257b6b	0.16160361
186	0xbd721103	-0.059098255
187	0xbe7e7dca	-0.24852672
188	0xbdd93444	-0.10605672
189	0x3a0012fb	0.0004885641
190	0xbdacf4ae	-0.084451064
191	0xbe39e9e3	-0.18155627
192	0x3d5094f6	0.05092331
193	0xbe111eab	-0.14171855
194	0x3e2dab6d	0.16959925
195	0xbe812f93	-0.2523161
196	0xbd57208e	-0.05252128
197	0x3df187af	0.11793458
198	0xbe2f2c1f	-0.17106675
199	0x3d404e3b	0.046949606
200	0xbe1102d2	-0.14161232
201	0x3d4e5b5d	0.0503801
202	0xbebab3a1	-0.3646517
203	0xbc71fbee	-0.014769537
204	0x3bb119e7	0.005404699
205	0xbdd2f697	-0.103009395
206	0xbea117b3	-0.31463394
207	0x3d24ebf0	0.04026407
208	0x3d9d928c	0.07693967
209	0xbe0b6219	-0.1361164
210	0xbdf6dc00	-0.120536804
211	0xbe6dcdd5	-0.2322305
212	0xbdb6d472	-0.089272395
213	0x3e274dca	0.16338268
214	0xbcb2e491	-0.021837505
215	0xbe20537d	-0.15656848
216	0x3e280bbb	0.16410725
217	0x3e2f51f8	0.17121112
218	0xbe8cbe34	-0.27488863
219	0xbcd1c8c5	-0.02560843
220	0x3dcd9eeb	0.10040077
221	0xbe297c45	-0.16551311
222	0xbdf83ebd	-0.121213414
223	0x3dd3e3b6	0.10346167
224	0x3e88a130	0.26685476
225	0xbd9e0287	-0.07715326
226	0xbe370152	-0.17871597
227	0x3d35d198	0.044389337
228	0x3e925a5a	0.28584558
229	0x3d542a61	0.05179823
230	0xbe8125bc	-0.25224102
231	0xbdf92586	-0.1216536
232	0x3eb4bac4	0.3529874
233	0xbde6182c	-0.11235079
234	0xbcdb1fa3	-0.026748484
235	0x3e4153a8	0.18879569
236	0x3c264bfa	0.01014995
237	0xbd63c7f7	-0.055610623
238	0xbe25bc3b	-0.16185085
239	0xba86a855	-0.0010273556
240	0x3e11bf87	0.14233218
241	0x3dd80570	0.10547912
242	0x3e6b8803	0.23001103
243	0x3e1ec9ff	0.15506743
244	0xbd88639e	-0.066596255
245	0x3e1f5c1e	0.15562484
246	0x3e352388	0.17689335
247	0x3cf1da11	0.029522927
248	0x3d9d2e63	0.07674863
249	0xbe861ef4	-0.2619549
250	0x3cfba1cb	0.030716797
251	0x3e281483	0.16414075
252	0x3e6b92cb	0.23005216
253	0x3db5a968	0.08870202
254	0x3db0537c	0.086096734
255	0x3e5eca8f	0.21756957

sequential_1/dense_1/BiasAdd/ReadVariableOp f4 [20]
0	0x3e0bf180	0.13666344
1	0x3db97b09	0.0905667
2	0xbd385a14	-0.04500778
3	0x3c2eff48	0.010680981
4	0x3d4c1eb0	0.049833953
5	0xbc45a2b2	-0.012062715
6	0x3dd2cb41	0.10292674
7	0x3c402823	0.011728319
8	0xbb397264	-0.0028296942
9	0xbd62981a	-0.055320837
10	0xbd5ae6e0	-0.053442836
11	0x3db9336d	0.09043012
12	0xbdf45ff2	-0.119323626
13	0x3dec7720	0.11546159
14	0x3db65ef0	0.08904827
15	0x3dba70ea	0.09103568
16	0x3e021f88	0.1270734
17	0xbda9d5f8	-0.082927644
18	0xbcf10f00	-0.029426098
19	0x3e466709	0.19375242

sequential_1/dense_1_2/BiasAdd/ReadVariableOp f4 [2]
0	0xbd892f20	-0.066984415
1	0x3d892f23	0.06698444

sequential_1/dense_1/MatMul f4 [20, 32]
0	0x3d92cc5d	0.071678855
1	0xbe78cd67	-0.24297105
2	0xbf042485	-0.51618224
3	0x3e17116a	0.14752737
4	0xbe9f3f53	-0.31103
5	0x3ea0e282	0.31422812
6	0x3e4c5ba0	0.19956827
7	0xbef3fa33	-0.47651824
8	0xbef98804	-0.48736584
9	0xbf13c168	-0.5771699
10	0xbe05e171	-0.1307428
11	0x3e44efa3	0.19232039
12	0x3ddcac4c	0.107750505
13	0x3e0081ba	0.12549487
14	0xbdfa3e2b	-0.12218889
15	0x3eaa8c73	0.3331028
16	0xbe97ef6c	-0.29674852
17	0x3e451cb7	0.19249235
18	0xbe4cb868	-0.1999222
19	0x3d927a32	0.07152213
20	0x3e97dfd2	0.2966295
21	0xbf1a3a47	-0.60245174
22	0xbdef612a	-0.116884544
23	0x3eb809a0	0.35944843
24	0xbece4931	-0.40290216
25	0x3d53916e	0.051652364
26	0x3e4bee89	0.19915213
27	0x3ec709e6	0.3887474
28	0x3eb9ecf4	0.36313593
29	0x3e6af527	0.2294508
30	0xbe411b87	-0.18858157
31	0x3e67e457	0.22645698
32	0x3e8c5d6d	0.27415028
33	0x3db3ce0f	0.08779537
34	0x3f00d7d9	0.5032936
35	0x3e1684e9	0.14699139
36	0xbe17fa7c	-0.14841646
37	0x3e4b08c8	0.19827569
38	0xbe4d1de8	-0.2003094
39	0xbd9a07cd	-0.07521019
40	0x3eab83e3	0.3349906
41	0x3f26878d	0.65050584
42	0x3ed00753	0.40630588
43	0xbd4fad10	-0.050702155
44	0x3db9f494	0.09079853
45	0xbdb132e5	-0.086522855
46	0xbdd93040	-0.10604906
47	0x3e0508c3	0.12991624
48	0x3ed7a4be	0.42117876
49	0x3e268f44	0.16265589
50	0x3da21681	0.079144485
51	0x3e4bf2a5	0.1991678
52	0x3e8b6013	0.27221736
53	0x3e957924	0.29193985
54	0x3edb5dd4	0.42845023
55	0x3e27bc37	0.16380392
56	0x3d2b2842	0.04178644
57	0xbe726fec	-0.23675507
58	0x3e8e3aa0	0.27779102
59	0xbdf2e4be	-0.11860035
60	0xbe1169bc	-0.1420049
61	0x3d1f4cf1	0.038891736
62	0xbebea6ff	-0.37236783
63	0xbeba61b2	-0.3640266
64	0x3e30af90	0.17254472
65	0x3e422c30	0.18962169
66	0x3df5d3b8	0.12003273
67	0x3e2a486a	0.16629186
68	0x3d5bcf86	0.053664707
69	0xbe477478	-0.19478023
70	0x3e47ea8f	0.19523071
71	0x3eba0315	0.36330476
72	0xbe481bd8	-0.19541872
73	0xbc867c45	-0.016416678
74	0xbe27c196	-0.16382441
75	0xbe794b3b	-0.24345104
76	0xbeb05f5c	-0.34447753
77	0xbe61714b	-0.22015874
78	0xbe8ea6c5	-0.2786161
79	0xbec8ae74	-0.39195597
80	0x3e8e233f	0.27761266
81	0xbedc5bb3	-0.4303871
82	0xbdfefebd	-0.12450931
83	0xbe9b9bfe	-0.3039245
84	0x3e24dd3f	0.16100024
85	0x3e67836f	0.22608732
86	0x3ea22873	0.31671485
87	0x3e146ade	0.14493892
88	0xbda1f15f	-0.07907366
89	0xbced6b23	-0.02898175
90	0xbda0c5d1	-0.078502305
91	0xbd7ade77	-0.061247315
92	0xbe9072e8	-0.28212667
93	0xbea8150d	-0.3282856
94	0xbe30e891	-0.17276217
95	0x3dc7def0	0.09759319
96	0x3ea4c157	0.32178757
97	0x3d27ad67	0.040936854
98	0xbeaa4863	-0.33258352
99	0x3e8465b0	0.2585883
100	0xbe934fca	-0.28771812
101	0xbe040d12	-0.12895611
102	0x3e17f535	0.14839633
103	0xbd66c9ec	-0.05634491
104	0x3e1ed765	0.15511854
105	0xbe51b65c	-0.20479721
106	0xbe150d8a	-0.14555946
107	0xbdcfb982	-0.10142805
108	0xbcf77ff0	-0.030212373
109	0xbe2153da	-0.15754643
110	0xbe6f6969	-0.23380055
111	0x3d08fa1f	0.03344166
112	0x3e03a819	0.12857093
113	0x3e8c1a56	0.27363843
114	0xbdd2c31d	-0.10291121
115	0xbdeadd9d	-0.11468051
116	0x3e1fd81e	0.15609786
117	0xbebe63c6	-0.37185496
118	0xbd665420	-0.05623257
119	0xbefae3c2	-0.4900189
120	0x3ec0145b	0.3751553
121	0x3eb094ac	0.34488428
122	0xbe2172f8	-0.15766513
123	0x3de5c9c8	0.11220127
124	0x3e74aa86	0.23893175
125	0xbc3592e1	-0.011082382
126	0x3d43c7f1	0.0477981
127	0x3e2a6dba	0.1664342
128	0x3e9ef113	0.310433
129	0xbeef8651	-0.46782163
130	0xbed3554c	-0.41276014
131	0x3e7c6b23	0.24650244
132	0xbdfe876c	-0.124281734
133	0xbed0317f	-0.40662763
134	0x3e810404	0.25198376
135	0xbefedaa8	-0.49776196
136	0xbd6b96b3	-0.057516765
137	0xbe58c6e1	-0.21169616
138	0xbda504ed	-0.0805758
139	0xbe881330	-0.2657714
140	0x3d928309	0.07153899
141	0x3eb57fe9	0.3544915
142	0xbd460f1a	-0.048354246
143	0x3e1149c8	0.14188302
144	0xbeb3e8d3	-0.35138568
145	0xbc28f67c	-0.010312673
146	0x3e93a55c	0.28837097
147	0x3eb10a2c	0.34578073
148	0x3ea9202c	0.33032358
149	0xbe015402	-0.12629703
150	0xbf0f0d5c	-0.5587976
151	0x3e581ceb	0.21104781
152	0x3d3b43e3	0.04571904
153	0xbd135a3b	-0.035974722
154	0x3e41e471	0.189348
155	0x3e987ce0	0.29782772
156	0x3e8a2664	0.26982415
157	0x3e82a28c	0.25514638
158	0x3db773c0	0.089576244
159	0x3dfad830	0.12248266
160	0x3e28cc84	0.16484267
161	0xbeaea35f	-0.34109017
162	0xbdd20c9a	-0.1025631
163	0xbe3579f1	-0.17722298
164	0x3e0db68f	0.13839172
165	0x3e926ebc	0.2860011
166	0x3e6696e3	0.22518496
167	0xbe6a1cee	-0.22862598
168	0x3d7c2bd5	0.06156524
169	0xbe7a4499	-0.2444023
170	0xbe180cae	-0.14848587
171	0xbe6a7be9	-0.2289883
172	0x3e46670b	0.19375245
173	0x3e4b6c38	0.19865501
174	0x3e73e4d6	0.23817763
175	0xbba8c774	-0.00515073
176	0xbedc7285	-0.4305612
177	0x3e5bf398	0.21479642
178	0xbd250e0d	-0.040296603
179	0x3ecf1476	0.40445298
180	0x3d929d6d	0.07158933
181	0xbe0eb4e0	-0.13936186
182	0xbe1ad626	-0.15120754
183	0x3e6b83f8	0.22999561
184	0x3d1a0da4	0.037610665
185	0x3e9f9008	0.31164575
186	0xbcd5293b	-0.026020637
187	0x3e2524f1	0.16127373
188	0xbe771a4e	-0.24131128
189	0xbdd32782	-0.1031027
190	0x3ee919d6	0.45527524
191	0x3ea9e0a3	0.33179197
192	0xbe5852de	-0.21125361
193	0xbd1fb2e4	-0.038988963
194	0xbcdb27ea	-0.026752431
195	0x3dec5ed3	0.11541524
196	0x3e0047ac	0.1252734
197	0xbf002112	-0.5005046
198	0x3df830cc	0.12118682
199	0x3c95917d	0.01825785
200	0xbccec920	-0.025242388
201	0xba0edc9c	-0.00054497435
202	0x3d56b1ff	0.052415844
203	0xbe714844	-0.23562723
204	0xbcdf7176	-0.027275782
205	0x3ec10cf7	0.37705204
206	0x3edf37ec	0.43597353
207	0x3e5acf5a	0.21368161
208	0xbdc5b645	-0.09653906
209	0x3e28e11a	0.1649212
210	0x3da3c018	0.07995623
211	0xbeaa1683	-0.332203
212	0x3deb19c3	0.11479523
213	0xbf06e9b0	-0.5270033
214	0xbd1eccb8	-0.038769454
215	0x3e90e7d4	0.2830187
216	0xbf164a83	-0.58707446
217	0x3d09c063	0.03363074
218	0x3c0e7535	0.0086949365
219	0x3e404e7f	0.18779944
220	0x3d694410	0.056949675
221	0xbe0c7a7c	-0.13718599
222	0xbd3f7c09	-0.04674915
223	0x3e88a532	0.26688534
224	0x3e9127cf	0.28350684
225	0x3e20e54f	0.15712474
226	0xbd79997e	-0.060937397
227	0x3d24eab8	0.040262908
228	0x3e417431	0.1889198
229	0x3ded501d	0.11587546
230	0x3e8a3dcc	0.27000272
231	0xbe89c7e2	-0.2691031
232	0xbe0fd5cc	-0.14046401
233	0xbf157c42	-0.5839273
234	0xbe4a1306	-0.1973382
235	0xbd3ced3d	-0.046124686
236	0x3e164d47	0.14677916
237	0x3b36587d	0.002782374
238	0x3eb430a4	0.3519336
239	0x3df6ab2c	0.12044367
240	0xbe989457	-0.29800674
241	0x3c5b11be	0.013370929
242	0x3e47b52e	0.19502708
243	0x3ebc799e	0.36811537
244	0x3e8485e2	0.25883394
245	0xbebcc65c	-0.36870086
246	0xbed98e48	-0.42491364
247	0xbdf982c5	-0.121831454
248	0x3cfbb216	0.030724566
249	0xbd3bca47	-0.045847204
250	0x3ea339ba	0.3187998
251	0x3e169b8c	0.14707774
252	0xbe935d8f	-0.28782317
253	0x3eacb7af	0.3373389
254	0xbe16bfbc	-0.14721578
255	0xbe4e833b	-0.20167248

sequential_1/dense_1_2/MatMul f4 [2, 20]
0	0x3f1c55d7	0.6106848
1	0xbed25798	-0.41082454
2	0xbe7ea771	-0.24868561
3	0x3f042cb5	0.5163072
4	0x3f0e9c2e	0.5570706
5	0x3f187449	0.5955244
6	0x3f4318f7	0.7620997
7	0x3ef7c791	0.48394445
8	0x3ebf433b	0.3735598
9	0x3efb94c1	0.49136928
10	0x3de73389	0.112891264
11	0xbe4bc23d	-0.19898315
12	0xbd524088	-0.051331073
13	0xbe14317f	-0.14472006
14	0x3f0ed4da	0.55793536
15	0x3ef7346b	0.4828218
16	0x3f356a98	0.70865774
17	0xbe4b4560	-0.19850683
18	0x3e958725	0.2920467
19	0x3f509286	0.8147358
20	0xbf3b0d8a	-0.73067534
21	0x3f06dfad	0.5268505
22	0x3eea0d4d	0.45713273
23	0xbeb75f45	-0.35814872
24	0xbdc61828	-0.09672576
25	0x3e0cd4db	0.13753073
26	0xbdaf7f6d	-0.085692264
27	0xbebd0f1e	-0.36925596
28	0xbe0ba215	-0.13636048
29	0xbe57d6a1	-0.21077968
30	0xbeb86c5f	-0.3602018
31	0x3ee2f992	0.44331032
32	0x3e9e5b5d	0.3092908
33	0x3f042a91	0.5162745
34	0xbeb06437	-0.34451458
35	0x3e26225b	0.16224043
36	0xbf0029b2	-0.5006362
37	0xbdfc4b64	-0.12319067
38	0xbe45d17f	-0.19318198
39	0xbf58beaf	-0.8466596
