app/src/main/assets/modelo_convertido.tflite (tflite, 17288 bytes, 8 tensors)

arith.constant3 f4 [2, 20]
000000 bc 67 24 bf e0 58 18 be 04 2a 59 3e b9 22 a1 be
       -0.64220786 -0.14877653 0.21207434 -0.31471804
000010 fa 69 b7 bd fc aa 8e 3e 0f d9 e5 3e a0 51 11 be
       -0.0895576 0.27864826 0.44892165 -0.14191294
000020 9c 1b 96 3e 22 be 96 be 52 b2 5a 3e 4c 5b c8 bd
       0.2931794 -0.29441935 0.21357086 -0.097830385
000030 9a 58 d7 bc e1 ef 9c 3c 3e 8d 3c be f2 66 8b be
       -0.026287366 0.019157352 -0.18413255 -0.2722698
000040 71 77 83 3e 24 e8 0d 3f a7 37 7c be ac 0d c5 3e
       0.25677064 0.55432343 -0.24630605 0.38486993
000050 1f e9 a3 3e 9d 4c 00 bf 54 e7 2b be 21 52 c1 bd
       0.32013795 -0.501169 -0.16787463 -0.09439493
000060 ca d1 2c 3f 20 b0 9d be 85 f5 db be 3a 11 ed be
       0.6750761 -0.30798435 -0.42960754 -0.46302205
000070 14 5e 8e be 32 8c c8 be 9b d4 c8 be 67 53 c0 be
       -0.2780615 -0.3916946 -0.39224705 -0.3756363
000080 c2 f7 b5 3e b7 d2 80 be 8e 06 cc be 96 2a e9 be
       0.35540587 -0.25160763 -0.3984875 -0.45540303
000090 ce 3b 09 3e 47 e0 95 bd f1 bf 58 bd 96 bd ff bd
       0.1340172 -0.07318168 -0.052917425 -0.124873325

arith.constant4 f4 [20, 20]
000000 fa e1 0f 3e c7 be c1 be 0b 40 f5 be 0c f8 09 bf
       0.14051047 -0.37840864 -0.47900423 -0.53894114
000010 11 16 c4 be b0 e1 5a 3e 51 17 3d be 10 f6 be 3d
       -0.38298085 0.21375155 -0.18465926 0.093242764
000020 b6 c4 81 3e 8f a3 e3 be 70 6a 70 be 68 b5 f0 bd
       0.2534539 -0.44460723 -0.23478103 -0.117533505
000030 6e f0 0d 3e 06 85 c8 bd c4 5a 23 3e f6 f2 90 3e
       0.13861248 -0.09790997 0.15952593 0.28310364
000040 8a 97 5f 3d 2f 39 3e 3e 24 47 16 be ef 05 ba be
       0.05458788 0.18576501 -0.14675575 -0.36332652
000050 0d 35 32 3e 74 42 9f be 07 ba 8e be ef a3 c4 3e
       0.1740305 -0.31105387 -0.27876303 0.3840632
000060 33 21 af 3d 43 b2 45 bc 63 8d ae bd 7d a1 66 bd
       0.08551254 -0.012066427 -0.08523061 -0.05630635
000070 7b 7d 3c 3e 9b 45 49 bd 55 a6 b9 be 21 a4 0b 3e
       0.18407242 -0.049138647 -0.36259714 0.13636829
000080 be 7a 64 bd 0f 7d b0 be db 24 63 3e cd 88 dc be
       -0.05578112 -0.34470412 0.22182028 -0.4307312
000090 af 6e 80 3e f1 41 cf bd ae b7 bd 3d e3 16 74 be
       0.25084445 -0.10119999 0.0926355 -0.23836856
0000a0 c9 66 9a be b2 84 97 3e 47 43 aa 3e 15 c1 23 be
       -0.30156544 0.29593426 0.33254454 -0.15991624
0000b0 11 53 73 3d b4 20 2b 3f c1 95 b7 be 85 63 9d be
       0.05940539 0.66846776 -0.3585644 -0.3073999
0000c0 10 92 92 3e bb be 5b be e3 8d d0 be 94 08 91 be
       0.28627062 -0.21459477 -0.4073325 -0.28326857
0000d0 bf e5 4d bd a2 86 09 bd 18 e5 43 3d b1 4a fd 3e
       -0.05026793 -0.03357566 0.047825903 0.49471048
0000e0 e3 7a 02 3e d3 79 47 3e ae 1d d3 3d 5f ea 66 be
       0.1274219 0.19480066 0.10308395 -0.22550343
0000f0 bf 4c 99 be f4 26 69 be 55 3a 49 3e c3 e1 47 3e
       -0.29941365 -0.22768766 0.19651158 0.19519715
000100 91 7b 9a 3c be 96 33 3d 4e 0d 99 3e 4c c1 b9 3d
       0.01885775 0.04384493 0.29892963 0.090700716
000110 1f 8b 3d 3e 9b 61 ab 3e 26 23 6c be c8 6f 0a 3e
       0.18510102 0.33472905 -0.23060283 0.13519204
000120 5a ce 0d bd aa 54 1a 3e 66 81 0b bf 0c 8d 05 3f
       -0.03462062 0.1507136 -0.5449432 0.52168345
000130 12 00 a7 3d 21 34 47 bd 72 d5 19 bd 13 5d 5f be
       0.0815431 -0.0486337 -0.037557073 -0.21812849
000140 df 14 d2 3d 27 bf 38 be ea 1f 64 3e 82 90 8f 3e
       0.10257887 -0.18041669 0.22277799 0.28039938
000150 93 2d 9c 3e 68 5a 52 be 94 2d d3 bd 3e 13 fb be
       0.3050352 -0.205423 -0.10311428 -0.49038118
000160 50 0e 91 3e 2c ce 29 3e 66 32 12 3e 18 b1 02 bd
       0.28331232 0.16582555 0.14277038 -0.03190717
000170 e4 b2 d5 bd 52 21 0b 3e 74 7b 4b 3d e7 6e dc 3e
       -0.10434511 0.1358693 0.04967828 0.43053362
000180 d4 6b 9b 3c fa fd 7a 3e f0 1d 2a 3f 40 67 08 3e
       0.018972315 0.24510947 0.6645193 0.13320637
000190 d6 86 e5 bd 2e 2c 8f be 2b 4c a7 bc b4 49 4c 3e
       -0.112073585 -0.27963394 -0.020422062 0.1994999
0001a0 df 4c e7 bd e3 fb 53 3e 9e 1a 04 be c0 09 b7 bc
       -0.11293959 0.20701556 -0.12900779 -0.022343516
0001b0 65 e1 63 be 96 5b 51 be 1b 3d b3 3e ce 09 93 3e
       -0.2225395 -0.20445094 0.35007557 0.28718418
0001c0 f5 1e 59 bc 58 c8 ab 3e 77 42 64 3e 67 0f 84 bd
       -0.01325201 0.33551288 0.2229098 -0.0644825
0001d0 87 ee 0c bf 45 f6 05 bd 4a 27 10 be f2 21 d7 3d
       -0.55051464 -0.032705564 -0.14077488 0.105045214
0001e0 9f 40 1a 3d b9 ec 22 3e 93 e0 d8 bc 2e 9d 3b 3e
       0.037659284 0.15910615 -0.026474273 0.18321678
0001f0 1e 52 ab be d1 df bd 3e 25 10 61 be 01 5f ac 3e
       -0.33461088 0.3708482 -0.21978815 0.33666232
000200 7b 51 51 be 2a a3 41 bd ea 08 42 3d b9 66 86 be
       -0.20441239 -0.047274746 0.047371782 -0.26250246
000210 51 2d 4f 3e 1f 00 bb 3d da d4 b0 3e f6 03 04 be
       0.2023213 0.091308825 0.34537393 -0.12892136
000220 85 9c 9e 3e 55 51 38 3c 7c 21 bd bd 80 05 89 bd
       0.3097879 0.01124986 -0.09234902 -0.06690502
000230 c4 dd 88 be f0 ae d1 3d 6d 6a f6 bd f8 11 99 be
       -0.26731694 0.10238445 -0.12032018 -0.29896522
000240 54 b1 f7 be 2b 86 14 3f 25 13 a9 be 53 44 07 be
       -0.48377478 0.58017224 -0.3302242 -0.13209657
000250 b5 54 2b be c4 ef 97 3e 56 7d d3 be 76 b6 c9 bd
       -0.16731532 0.29675114 -0.4130656 -0.09849255
000260 23 b3 7f 3e c9 5e 1f be bd 38 a5 3e b1 52 2e 3e
       0.24970679 -0.15563501 0.3226985 0.17023732
000270 1e aa 65 3c 27 27 f4 bc 55 bf 53 bd 33 e1 be 3c
       0.01401761 -0.029803826 -0.05169614 0.023300743
000280 96 2f 73 3e 57 18 2d 3d 8d 60 0a 3c 07 92 4f be
       0.23748621 0.04225954 0.008445871 -0.20270549
000290 c1 2e 20 be 85 9b 86 3e e9 9b 3a 3e 2b c8 7c bb
       -0.15642835 0.26290527 0.18223538 -0.0038571458
0002a0 8f 94 e1 bd 13 4e df 3e 84 68 59 ba d1 48 77 be
       -0.110146634 0.43614253 -0.0008293467 -0.24148871
0002b0 4d 71 c5 bc e5 d7 5d 3e 6c ad 81 3e f7 13 e3 3e
       -0.024101878 0.21664388 0.25327623 0.4435117
0002c0 86 e3 a4 3c 20 78 06 bd ca 1e ca bd a2 b8 b4 bd
       0.020128023 -0.032829404 -0.09869154 -0.088242784
0002d0 32 8b 44 bd 6c 98 79 3e f5 98 a5 be d8 f9 44 3d
       -0.04798431 0.2437455 -0.3234326 0.048089832
0002e0 bf a9 96 3e 86 19 05 3b d7 69 a9 be 49 7d a1 bd
       0.2942638 0.0020309403 -0.33088562 -0.07885224
0002f0 93 41 89 3e f1 ab 4f be 30 94 1f be 89 42 cf 3e
       0.26807842 -0.20280434 -0.15583873 0.4048045
000300 a0 25 25 3e a1 23 fa be 0a d3 e4 3d ea 82 07 bd
       0.16127634 -0.48855308 0.11173065 -0.033083834
000310 35 01 77 bd e6 da 5b be 68 ae c8 be 91 a8 67 3e
       -0.060303885 -0.21470222 -0.3919556 0.22622897
000320 81 38 60 bd 61 1e 23 be c2 ba 34 3e ba b6 a5 be
       -0.054741386 -0.15929557 0.17649367 -0.32365972
000330 6e 07 a6 be 72 ff 1e 3e 47 35 32 be 1c 9a 18 3e
       -0.32427543 0.15527132 -0.17403136 0.14902538
000340 6f 1c bc be c8 e3 a3 3e 52 9a 9b be 8d a5 7b 3e
       -0.36740443 0.3200972 -0.30391175 0.24574871
000350 07 bd c5 bd d7 06 06 bd 8e d8 bc bd c7 d4 7e be
       -0.09655195 -0.032721367 -0.09220992 -0.24885856
000360 e2 79 9e 3c da b3 53 be df 5d 16 be 2a f8 69 be
       0.019345228 -0.20674077 -0.14684246 -0.22848573
000370 d8 22 0b be ec d9 03 3e a2 91 f3 3e 78 d2 98 be
       -0.1358751 0.128761 0.47572047 -0.29848075
000380 94 e3 97 bc c8 6f c0 3d ac a7 c3 bc 75 c6 9a be
       -0.018541135 0.093963206 -0.023883663 -0.30229536
000390 ee 75 8d 3e a7 3a 54 3d d1 aa ab 3e 60 c7 9e 3e
       0.27629036 0.051813748 0.3352876 0.31011486
0003a0 48 fe 8a be 4d 20 b9 3e c7 f3 55 bd 55 c3 b7 bd
       -0.27147126 0.36157456 -0.052234437 -0.089728035
0003b0 a5 f5 83 be f5 cf 0a 3e 27 09 ed bd 9b 60 ac 3e
       -0.2577335 0.13555892 -0.11574011 0.33667454
0003c0 c5 c0 c5 3e 77 2c 1b bc 5a b5 80 be 5e 2e 4f 3c
       0.38623634 -0.00947105 -0.2513836 0.012645332
0003d0 cf c2 8e 3e 6f 54 ad bd e2 59 c3 3e 2d 68 e8 3d
       0.27883002 -0.0846337 0.38154513 0.11347995
0003e0 09 b4 f4 3e ae 0f 3d 3c e5 33 c8 bd 66 5a ba be
       0.47793606 0.011539383 -0.09775523 -0.36397094
0003f0 30 e2 71 be d5 d4 64 3e e7 28 de bd b4 3d ff 3d
       -0.2362144 0.22346814 -0.10847645 0.12462941

arith.constant5 f4 [2]
000000 19 19 a3 3d da 18 a3 bd
       0.079637714 -0.079637244

arith.constant6 f4 [20]
000000 cc 84 45 be 10 39 07 be 2e b1 22 3d 24 2a 8c bd
       -0.19288939 -0.13205361 0.039719753 -0.06843975
000010 fd c5 02 3e 49 d1 1d 3e d5 bb 08 3e 3c 6e 1f 3e
       0.12770839 0.15411867 0.13352902 0.15569395
000020 8f 39 ad 3d 2b 62 c9 bd 20 43 c0 3d 68 f3 c9 3d
       0.08458244 -0.09833177 0.09387803 0.09860879
000030 eb dc 20 be 3f 7b 15 be ce b3 46 3e 06 a9 1b 3c
       -0.15709274 -0.14597796 0.19404528 0.009500748
000040 6b 40 7d 3c 4a 38 db bd cb 2d 03 be 71 4c 29 3e
       0.015457253 -0.10704096 -0.12810437 0.16533066

arith.constant19 f4 [60]
000000 17 90 56 3e d4 0b 6d 3e ae 12 6e 3e b0 b4 f7 3d
       0.20953403 0.23149043 0.23249313 0.1209501
000010 8d 4d 9f 3e 3c 60 53 3e 6d e4 9d 3e 07 c9 25 bb
       0.31113854 0.20642179 0.30838338 -0.0025296824
000020 2a 5f 41 3e 03 92 1c 3f 53 ef 4b 3e 1e fc 3d 3e
       0.18883958 0.61160296 0.19915514 0.18553206
000030 3c 44 94 3e dc 6e a2 3e 9a 61 2b 3e d0 11 5b 3d
       0.2895831 0.31725204 0.16736451 0.053483784
000040 47 45 81 3e c6 86 8e 3e 7c bf 11 be 34 4f 04 3f
       0.25248167 0.278372 -0.14233202 0.51683354
000050 79 75 d6 3d d7 c8 f7 3d fe 64 b6 3d 73 36 e9 3d
       0.10471625 0.12098854 0.089059815 0.113873385
000060 73 65 04 3e a0 51 99 bd 03 64 82 3d 6f bd d1 3e
       0.12929325 -0.07486272 0.06366732 0.4096484
000070 0d b8 7c 3d f8 93 22 3d 87 96 87 bc 18 ff cb 3d
       0.061698962 0.039691895 -0.01655127 0.09960765
000080 bf 3c 5c 3e 3d b4 80 3e c1 ee 84 3e 98 7b 98 3e
       0.21507548 0.2513751 0.25963405 0.29781795
000090 ce 29 18 3e d7 4d 51 3e a2 c8 1e 3e 43 d1 b2 3b
       0.14859697 0.2043985 0.15506223 0.005457075
0000a0 9a d1 43 bd 16 89 b1 3b d0 da 21 3d 17 fa 29 3d
       -0.047807314 0.0054179532 0.039515316 0.04149827
0000b0 80 56 43 bc 3c 66 28 bd 47 11 84 bc d6 a0 e3 3d
       -0.011922479 -0.041113123 -0.01612152 0.111146614
0000c0 66 fa a1 bd 6a 74 f3 bc 8f c3 21 3d 43 df 39 bd
       -0.07909088 -0.029718596 0.03949314 -0.045378935
0000d0 ac ff 2c bd 14 b8 08 3d 4a d1 8a 3d 9c 1d b6 bd
       -0.042236015 0.033378676 0.067782 -0.08892366
0000e0 40 a5 6c 3b 72 38 87 bd fb f2 1b be 66 c3 22 3e
       0.003610924 -0.06602563 -0.15229408 0.15894851

arith.constant20 f4 [60]
000000 17 90 56 3e d4 0b 6d 3e ae 12 6e 3e b0 b4 f7 3d
       0.20953403 0.23149043 0.23249313 0.1209501
000010 8d 4d 9f 3e 3c 60 53 3e 6d e4 9d 3e 07 c9 25 bb
       0.31113854 0.20642179 0.30838338 -0.0025296824
000020 2a 5f 41 3e 03 92 1c 3f 53 ef 4b 3e 1e fc 3d 3e
       0.18883958 0.61160296 0.19915514 0.18553206
000030 3c 44 94 3e dc 6e a2 3e 9a 61 2b 3e d0 11 5b 3d
       0.2895831 0.31725204 0.16736451 0.053483784
000040 47 45 81 3e c6 86 8e 3e 7c bf 11 be 34 4f 04 3f
       0.25248167 0.278372 -0.14233202 0.51683354
000050 79 75 d6 3d d7 c8 f7 3d fe 64 b6 3d 73 36 e9 3d
       0.10471625 0.12098854 0.089059815 0.113873385
000060 73 65 04 3e a0 51 99 bd 03 64 82 3d 6f bd d1 3e
       0.12929325 -0.07486272 0.06366732 0.4096484
000070 0d b8 7c 3d f8 93 22 3d 87 96 87 bc 18 ff cb 3d
       0.061698962 0.039691895 -0.01655127 0.09960765
000080 bf 3c 5c 3e 3d b4 80 3e c1 ee 84 3e 98 7b 98 3e
       0.21507548 0.2513751 0.25963405 0.29781795
000090 ce 29 18 3e d7 4d 51 3e a2 c8 1e 3e 43 d1 b2 3b
       0.14859697 0.2043985 0.15506223 0.005457075
0000a0 61 9a 2a 3b 43 86 91 bc 77 0c 3d ba 10 da 36 3c
       0.0026031958 -0.017764216 -0.0007211635 0.011160389
0000b0 d6 9e de 39 8b 43 02 be 0c bb f9 3c 3f 24 05 3e
       0.00042461482 -0.12721078 0.030484699 0.13002108
0000c0 d0 88 6a bd 1a 1d 4e bd 0d 7a 86 3d 1f ce f1 bc
       -0.05725938 -0.050320722 0.06566248 -0.029517232
0000d0 bf f1 24 3d e7 34 c7 3c e0 9f 86 3d 9a 2b c8 bd
       0.04026961 0.024317218 0.065734625 -0.09773941
0000e0 02 30 b2 3b 8d dd 7f bd 5e 8d 03 be b4 ff dd 3d
       0.005437852 -0.062467147 -0.12846896 0.10839787

arith.constant27 f4 [60, 3]
000000 65 7c bb 3e 34 0c 10 3f 85 72 27 be 98 62 45 3f
       0.36618343 0.5626862 -0.1635228 0.7710357
000010 f6 7c bb be c2 22 43 bf c4 d1 3a bb e3 a3 ee bd
       -0.36618775 -0.7622491 -0.0028506378 -0.11652353
000020 7f b5 0b bf 53 aa 20 3e 1d b3 b6 3e bf 4c 76 3e
       -0.54573816 0.15689974 0.35683528 0.24052714
000030 17 2d fd 3e a7 2e f1 bd 90 c6 73 3e 37 cc 93 3f
       0.49448463 -0.11776476 0.23806214 1.1546696
000040 0d 06 96 be 50 26 fa be a0 49 ec 3d 35 2f 42 bf
       -0.2930149 -0.48857355 0.1153748 -0.7585328
000050 7d fd 0c 3f 0f fa d6 3e 1b d7 a3 3c e4 d9 d8 3e
       0.5507429 0.41987655 0.020000031 0.42353737
000060 e2 8e cc be 56 10 1d 3e 0a b4 22 be bc 1e 74 be
       -0.3995276 0.15338263 -0.15888992 -0.23839849
000070 6d c1 aa b9 f8 5a 10 be cb c0 32 be 31 db 98 be
       -0.0003256904 -0.14097202 -0.17456357 -0.2985473
000080 c8 a0 49 3c 80 41 6e 3d eb a9 91 3e b3 08 42 be
       0.0123064 0.058167934 0.2844995 -0.18948631
000090 43 5b 4d be 2c 5d 81 bc 98 ae d0 be 44 aa a4 bd
       -0.20054345 -0.015791498 -0.40758204 -0.08040288
0000a0 41 1a 57 3e ea 9f c7 be f1 e0 7a 3e 4f f0 a8 3e
       0.21006109 -0.38989192 0.24499871 0.3299584
0000b0 81 3d 85 3f ad a4 d3 3e 4b 61 6f 3d 91 be 5f 3e
       1.0409395 0.41336575 0.058442395 0.21850039
0000c0 3d 8a e1 be 6b 38 67 be e7 96 f8 be 39 f5 68 be
       -0.4405078 -0.22580115 -0.4855263 -0.22749795
0000d0 fc a4 ce be 8a b7 1c be 02 92 9a 3c ff 46 59 3d
       -0.40360248 -0.1530439 0.01886845 0.053046223
0000e0 ea 51 4e 3e a4 5b 1c bf c8 36 8d 3e 77 6b c2 be
       0.20148435 -0.6107733 0.27580857 -0.37972614
0000f0 89 47 a3 be 6d 43 d8 3e 91 96 7a be 5d f1 29 3d
       -0.31890514 0.42238942 -0.24471499 0.041489948
000100 f9 06 0c 3f e1 09 be be 6b 26 0e be 53 21 22 bf
       0.5469814 -0.37116912 -0.13881843 -0.633321
000110 0e 2b 9d be 02 da 83 3e a0 3f 65 be 09 ea a5 be
       -0.3069691 0.25752264 -0.22387552 -0.32405117
000120 3c d6 ec 3e aa f7 92 be 34 2f 3b be 5b 21 45 3f
       0.46257198 -0.28704578 -0.18279725 0.7700402
000130 c9 3a 0a bd fd fa ed 3c 1c 82 15 bd 15 6e 2d bf
       -0.03374747 0.029050345 -0.036501035 -0.67746097
000140 0e 02 9c 3e 7b 14 c6 be 21 d6 97 bd d4 87 48 bd
       0.30470318 -0.386875 -0.07413889 -0.04895766
000150 8b 46 23 3e 5c 47 16 be 5e b3 9c bd 54 30 27 bf
       0.15944879 -0.14675659 -0.07651399 -0.6530812
000160 dd 0f c4 be 21 a8 38 be 3b 0c 60 bc 55 a4 81 3e
       -0.38293353 -0.18032886 -0.013674791 0.25320688
000170 71 bc 67 bd 4b 99 13 3e a2 5d 9c be 76 8f 3e 3e
       -0.056576196 0.14413945 -0.30540186 0.18609414
000180 05 43 19 bf 4a f5 78 3e 44 44 05 3f 69 a7 ba 3d
       -0.5986789 0.2431232 0.5205729 0.09113962
000190 09 17 12 bd 3d 50 fb 3b 2f 82 21 3f 89 a9 03 3e
       -0.0356665 0.0076694773 0.6308927 0.12857641
0001a0 f0 2b 24 3e 33 6b de be d5 e3 5d be 80 36 8e 3d
       0.16032386 -0.43441162 -0.21668942 0.06943989
0001b0 c3 be 91 3e 00 df 85 be 54 e0 1e 3e ab 7c 77 3e
       0.28465852 -0.26146698 0.15515262 0.24168651
0001c0 ef 03 8a bd de f5 ed bc 74 15 52 bf bb ab e1 3e
       -0.067390315 -0.029047903 -0.82063985 0.44076332
0001d0 37 f6 d5 be a1 24 42 bd f2 35 8a 3e 5c 51 f2 be
       -0.4178941 -0.047398213 0.26994282 -0.47327697
0001e0 25 a9 94 bd 88 91 05 bf 9e 7c 90 3e 56 da b5 3d
       -0.07258824 -0.5217519 0.28220075 0.08879535
0001f0 7d 2d cd 3d aa 1e 0e bf 97 6d 46 be 84 88 98 be
       0.10018442 -0.5551554 -0.19377743 -0.29791653
000200 65 ab bc be d5 66 99 be c9 3b 1f bd 05 43 b8 be
       -0.36849514 -0.29961267 -0.038875375 -0.35988632
000210 7b 76 1a bf 2f d3 08 bd 0c a7 59 3c 7b 22 3a 3f
       -0.60337037 -0.033404525 0.013284456 0.72708863
000220 00 57 a3 bb 5f eb 4d be 20 bd 80 3d 5e e2 de 3e
       -0.0049847364 -0.20109318 0.06286073 0.4353208
000230 8f ab 56 be 30 f4 9c 3e 7e 91 d2 bc f8 c4 2f 3e
       -0.20963882 0.3065505 -0.025704142 0.17164981
000240 d8 83 df 3d f3 67 38 bd 61 ae 09 3d 0e c7 5b be
       0.10913819 -0.04502101 0.033613566 -0.21462652
000250 2a ac 24 be c4 18 56 be 26 11 5d be 89 74 a0 be
       -0.160813 -0.20907885 -0.21588573 -0.3133891
000260 9f 11 f6 bc e9 6d 2d be c4 d3 3b 3e 62 89 77 be
       -0.0300377 -0.16936459 0.18342501 -0.24173501
000270 cc 24 4e 3c f8 a9 2d be b8 eb 8b be 37 f2 c4 3d
       0.012582015 -0.16959369 -0.27328277 0.09616511
000280 7b 09 94 be 54 9d cf 3e 48 4f 14 bd 82 5f a8 bc
       -0.28913483 0.4054972 -0.03620842 -0.020553354
000290 b4 55 7a 3e 14 54 8f 3d 35 23 62 bd 64 81 c0 bc
       0.24446756 0.069984585 -0.055209357 -0.023499198
0002a0 6d e7 04 3f 51 e8 86 3e dd c0 42 3e f7 80 89 3d
       0.5191563 0.26349118 0.19018884 0.06714051
0002b0 53 78 6e 3e fe 79 6f 3e 31 0f e3 be 82 4f 90 be
       0.23288088 0.2338638 -0.44347528 -0.2818566
0002c0 06 fc 85 be dc d9 df be 9b 11 9d 3e 0f 30 28 be
       -0.2616884 -0.437209 0.30677494 -0.16424583

tfl.pseudo_qconst i1 [60, 20]
000000 7f be b1 35 25 d6 07 bd 31 cc f8 f2 60 fa 43 1e
       127 -66 -79 53 37 -42 7 -67 49 -52 -8 -14 96 -6 67 30
000010 13 24 25 ce 79 e0 e8 f1 9e e4 16 27 e6 ec 2f a5
       19 36 37 -50 121 -32 -24 -15 -98 -28 22 39 -26 -20 47 -91
000020 42 26 dd bd 10 81 c8 9a f8 45 07 4d 34 bd 13 1a
       66 38 -35 -67 16 -127 -56 -102 -8 69 7 77 52 -67 19 26
000030 fc a0 7f dd fb 17 fc d5 c4 22 b5 0e 36 dd e2 2d
       -4 -96 127 -35 -5 23 -4 -43 -60 34 -75 14 54 -35 -30 45
000040 f6 bf 1c d9 e4 e5 0b 16 fc 00 05 81 44 e9 fd 0c
       -10 -65 28 -39 -28 -27 11 22 -4 0 5 -127 68 -23 -3 12
000050 fc f5 cf 30 47 81 6b 00 cb d2 21 33 33 e2 f2 db
       -4 -11 -49 48 71 -127 107 0 -53 -46 33 51 51 -30 -14 -37
000060 ec d6 da 02 2c 89 c3 23 76 94 7f d6 e9 d7 d4 3a
       -20 -42 -38 2 44 -119 -61 35 118 -108 127 -42 -23 -41 -44 58
000070 f0 04 e6 ea 09 4f f1 5e 81 4e 10 ff bb 01 5e 4a
       -16 4 -26 -22 9 79 -15 94 -127 78 16 -1 -69 1 94 74
000080 0c 22 de e2 ce a0 04 f8 13 d9 a0 4a bc f6 e2 7f
       12 34 -34 -30 -50 -96 4 -8 19 -39 -96 74 -68 -10 -30 127
000090 5a f2 41 d7 70 d8 ea 7e 40 8a 86 53 ba ed ba 32
       90 -14 65 -41 112 -40 -22 126 64 -118 -122 83 -70 -19 -70 50
0000a0 33 e0 bf a5 f7 f6 01 e4 3a f4 b7 a4 dd 7f fa 07
       51 -32 -65 -91 -9 -10 1 -28 58 -12 -73 -92 -35 127 -6 7
0000b0 30 24 ef e0 4c ce fb 20 32 81 ee 08 19 8b 31 fc
       48 36 -17 -32 76 -50 -5 32 50 -127 -18 8 25 -117 49 -4
0000c0 f1 76 3c af 15 ce 04 b3 db c1 38 21 f2 01 3b 34
       -15 118 60 -81 21 -50 4 -77 -37 -63 56 33 -14 1 59 52
0000d0 ea 15 a5 23 87 3b d9 81 6e 13 6d 1e 7f a8 01 02
       -22 21 -91 35 -121 59 -39 -127 110 19 109 30 127 -88 1 2
0000e0 2e c1 4c db 1a 18 f2 eb fd f8 20 c2 0e 29 3b bb
       46 -63 76 -37 26 24 -14 -21 -3 -8 32 -62 14 41 59 -69
0000f0 1f 81 c0 07 c9 21 44 fd fe 15 c1 e6 ac 14 68 c6
       31 -127 -64 7 -55 33 68 -3 -2 21 -63 -26 -84 20 104 -58
